…
<h4 id="232-设备级负载损失device-level-balance-loss">2.3.2 设备级负载损失（Device-Level Balance Loss）</h4>
<p>DeepSeek 会将专家分成 D 组，每组专家放在一个设备上。设备级负载损失用来确保在不同 GPU 或设备之间的计算负载也是均衡的。在损失超参数<span class="math inline">\(\alpha_1,\alpha_2\)</span>设计上, 专家负载均衡损失参数设置的较小，而设备负载均衡损失的超参数设置较大，设备级负载loss 比专家级粒度更大，相当于在多组专家间做负载均衡，这样可以更好地*衡不同设备的计算负载。</p>
<p><img src="https://img2024.cnblogs.com/blog/1850883/202504/1850883-20250419140247349-436525100.jpg" alt="" loading="lazy"></p>
<h3 id="24-实现">2.4 实现</h3>
<p>模型结构如下。</p>
<pre><code class="language-python">(mlp): DeepseekMoE(
  (experts): ModuleList(
    (0-159): 160 x DeepseekMLP(
      (gate_proj): Linear(in_features=5120, out_features=1536, bias=False)
      (up_proj): Linear(in_features=5120, out_features=1536, bias=False)
      (down_proj): Linear(in_features=1536, out_features=5120, bias=False)
      (act_fn): SiLU()
    )
  )
  (gate): MoEGate()
  (shared_experts): DeepseekMLP(
    (gate_proj): Linear(in_features=5120, out_features=3072, bias=False)
    (up_proj): Linear(in_features=5120, out_features=3072, bias=False)
    (down_proj): Linear(in_features=3072, out_features=5120, bias=False)
    (act_fn): SiLU()
  )
)
</code></pre>
<p>关键代码如下。从源码中看，MoEGate函数的实现和论文是有一些差异的，是对针对一个batch内的所有token进行负载均衡损失计算，即 T 就是一个Batch的总token量。torch.topk()函数会返回输入张量中指定维度上的前 k 个最大元素以及其对应的索引。</p>
<pre><code class="language-python">class MoEGate(nn.Module):
    def forward(self, hidden_states):
        bsz, seq_len, h = hidden_states.shape        
        # 公式里的T，是一个Batch数据的全部token做计算，每个Batch会重新计算
…
    "inter_dim": 18432,
    "moe_inter_dim": 2048,
    "n_layers": 61,
    "n_dense_layers": 3,
    "n_heads": 128,
    "n_routed_experts": 256,
    "n_shared_experts": 1,
    "n_activated_experts": 8,
    "n_expert_groups": 8,
    "n_limited_groups": 4,
    "route_scale": 2.5,
    "score_func": "sigmoid",
    "q_lora_rank": 1536,
    "kv_lora_rank": 512,
    "qk_nope_head_dim": 128,
    "qk_rope_head_dim": 64,
    "v_head_dim": 128,
    "dtype": "fp8"
}
</code></pre>
<p>模型结构如下：</p>
<pre><code class="language-python">DeepseekV2MoE(
  (experts): ModuleList(
    (0-63): 64 x DeepseekV2MLP(
      (gate_proj): Linear(in_features=2048, out_features=1408, bias=False)
      (up_proj): Linear(in_features=2048, out_features=1408, bias=False)
      (down_proj): Linear(in_features=1408, out_features=2048, bias=False)
      (act_fn): SiLU()
    )
  )
  (gate): MoEGate()
  (shared_experts): DeepseekV2MLP(
    (gate_proj): Linear(in_features=2048, out_features=2816, bias=False)
    (up_proj): Linear(in_features=2048, out_features=2816, bias=False)
    (down_proj): Linear(in_features=2816, out_features=2048, bias=False)
    (act_fn): SiLU()
  )
)
</code></pre>
<p>MoE的代码如下：</p>
<pre><code class="language-python">class MoE(nn.Module):
    def __init__(self, args: ModelArgs):
        super().__init__()
        self.dim = args.dim
        assert args.n_routed_experts % world_size == 0
        self.n_routed_experts = args.n_routed_experts # 路由专家个数
        self.n_local_experts = args.n_routed_experts // world_size
…
